…
  (drop6o): ModuleList(
    (0): Dropout(p=0.3, inplace=False)
    (1): Dropout(p=0.3, inplace=False)
    (2): Dropout(p=0.3, inplace=False)
  )
  (linout): ModuleList(
    (0): Linear(in_features=128, out_features=1, bias=True)
    (1): Linear(in_features=128, out_features=1, bias=True)
    (2): Linear(in_features=128, out_features=1, bias=True)
  )
)
Speech samples: 57076
----------------------------------------------------------------
        Layer (type)               Output Shape         Param #
================================================================
            Conv1d-1          [-1, 1024, 20001]         525,312
               GLU-2           [-1, 512, 20001]               0
       BatchNorm1d-3           [-1, 512, 20001]           1,024
         MaxPool1d-4            [-1, 512, 5000]               0
           Dropout-5            [-1, 512, 5000]               0
            Conv1d-6            [-1, 128, 5001]       4,194,432
               GLU-7             [-1, 64, 5001]               0
       BatchNorm1d-8             [-1, 64, 5001]             128
         MaxPool1d-9             [-1, 64, 1250]               0
          Dropout-10             [-1, 64, 1250]               0
           Conv1d-11            [-1, 128, 1251]         524,416
              GLU-12             [-1, 64, 1251]               0
      BatchNorm1d-13             [-1, 64, 1251]             128
        MaxPool1d-14              [-1, 64, 312]               0
          Dropout-15              [-1, 64, 312]               0
           Conv1d-16             [-1, 128, 313]         524,416
              GLU-17              [-1, 64, 313]               0
      BatchNorm1d-18              [-1, 64, 313]             128
        MaxPool1d-19               [-1, 64, 78]               0
          Dropout-20               [-1, 64, 78]               0
           Conv1d-21              [-1, 256, 79]       1,048,832
              GLU-22              [-1, 128, 79]               0
      BatchNorm1d-23              [-1, 128, 79]             256
        MaxPool1d-24              [-1, 128, 19]               0
          Dropout-25              [-1, 128, 19]               0
           Conv1d-26             [-1, 1536, 20]      12,584,448
              GLU-27              [-1, 768, 20]               0
      BatchNorm1d-28              [-1, 768, 20]           1,536
        MaxPool1d-29               [-1, 768, 5]               0
          Dropout-30               [-1, 768, 5]               0
           Linear-31                  [-1, 256]         196,864
          Dropout-32                  [-1, 256]               0
           Linear-33                  [-1, 128]          32,896
          Dropout-34                  [-1, 128]               0
           Linear-35                    [-1, 1]             129
           Linear-36                  [-1, 256]         196,864
          Dropout-37                  [-1, 256]               0
           Linear-38                  [-1, 128]          32,896
          Dropout-39                  [-1, 128]               0
           Linear-40                    [-1, 1]             129
           Linear-41                  [-1, 256]         196,864
          Dropout-42                  [-1, 256]               0
           Linear-43                  [-1, 128]          32,896
          Dropout-44                  [-1, 128]               0
           Linear-45                    [-1, 1]             129
================================================================
Total params: 20,094,723
Trainable params: 20,094,723
Non-trainable params: 0
----------------------------------------------------------------
Input size (MB): 0.31
Forward/backward pass size (MB): 366.89
Params size (MB): 76.66
Estimated Total Size (MB): 443.85
----------------------------------------------------------------
…
